…
ser":{"displayName":"Takashi Suou","userId":"04024765498720654612"}},"outputId":"ce6a04a9-24fe-43e3-9354-7d1658ae88d7"},"execution_count":6,"outputs":[{"output_type":"stream","name":"stdout","text":["Model: \"vgg16\"\n","_________________________________________________________________\n"," Layer (type)                Output Shape              Param #   \n","=================================================================\n"," input_1 (InputLayer)        [(None, 224, 224, 3)]     0         \n","                                                                 \n"," block1_conv1 (Conv2D)       (None, 224, 224, 64)      1792      \n","                                                                 \n"," block1_conv2 (Conv2D)       (None, 224, 224, 64)      36928     \n","                                                                 \n"," block1_pool (MaxPooling2D)  (None, 112, 112, 64)      0         \n","                                                                 \n"," block2_conv1 (Conv2D)       (None, 112, 112, 128)     73856     \n","                                                                 \n"," block2_conv2 (Conv2D)       (None, 112, 112, 128)     147584    \n","                                                                 \n"," block2_pool (MaxPooling2D)  (None, 56, 56, 128)       0         \n","                                                                 \n"," block3_conv1 (Conv2D)       (None, 56, 56, 256)       295168    \n","                                                                 \n"," block3_conv2 (Conv2D)       (None, 56, 56, 256)       590080    \n","                                                                 \n"," block3_conv3 (Conv2D)       (None, 56, 56, 256)       590080    \n","                                                                 \n"," block3_pool (MaxPooling2D)  (None, 28, 28, 256)       0         \n","                                                                 \n"," block4_conv1 (Conv2D)       (None, 28, 28, 512)       1180160   \n","                                                                 \n"," block4_conv2 (Conv2D)       (None, 28, 28, 512)       2359808   \n","                                                                 \n"," block4_conv3 (Conv2D)       (None, 28, 28, 512)       2359808   \n","                                                                 \n"," block4_pool (MaxPooling2D)  (None, 14, 14, 512)       0         \n","                                                                 \n"," block5_conv1 (Conv2D)       (None, 14, 14, 512)       2359808   \n","                                                                 \n"," block5_conv2 (Conv2D)       (None, 14, 14, 512)       2359808   \n","                                                                 \n"," block5_conv3 (Conv2D)       (None, 14, 14, 512)       2359808   \n","                                                                 \n"," block5_pool (MaxPooling2D)  (None, 7, 7, 512)         0         \n","                                                                 \n"," flatten (Flatten)           (None, 25088)             0         \n","                                                                 \n"," fc1 (Dense)                 (None, 4096)              102764544 \n","                                                                 \n"," fc2 (Dense)                 (None, 4096)              16781312  \n","                                                                 \n"," predictions (Dense)         (None, 1000)              4097000   \n","                                                                 \n","=================================================================\n","Total params: 138357544 (527.79 MB)\n","Trainable params: 138357544 (527.79 MB)\n","Non-trainable params: 0 (0.00 Byte)\n","_________________________________________________________________\n"]}]},{"cell_type":"code","source":["from tensorflow.keras.pr
…
er":{"displayName":"Takashi Suou","userId":"04024765498720654612"}},"outputId":"0e28591d-d603-4160-d29c-e644e782a2f9"},"execution_count":21,"outputs":[{"output_type":"stream","name":"stdout","text":["Model: \"vgg16\"\n","_________________________________________________________________\n"," Layer (type)                Output Shape              Param #   \n","=================================================================\n"," input_2 (InputLayer)        [(None, 256, 256, 3)]     0         \n","                                                                 \n"," block1_conv1 (Conv2D)       (None, 256, 256, 64)      1792      \n","                                                                 \n"," block1_conv2 (Conv2D)       (None, 256, 256, 64)      36928     \n","                                                                 \n"," block1_pool (MaxPooling2D)  (None, 128, 128, 64)      0         \n","                                                                 \n"," block2_conv1 (Conv2D)       (None, 128, 128, 128)     73856     \n","                                                                 \n"," block2_conv2 (Conv2D)       (None, 128, 128, 128)     147584    \n","                                                                 \n"," block2_pool (MaxPooling2D)  (None, 64, 64, 128)       0         \n","                                                                 \n"," block3_conv1 (Conv2D)       (None, 64, 64, 256)       295168    \n","                                                                 \n"," block3_conv2 (Conv2D)       (None, 64, 64, 256)       590080    \n","                                                                 \n"," block3_conv3 (Conv2D)       (None, 64, 64, 256)       590080    \n","                                                                 \n"," block3_pool (MaxPooling2D)  (None, 32, 32, 256)       0         \n","                                                                 \n"," block4_conv1 (Conv2D)       (None, 32, 32, 512)       1180160   \n","                                                                 \n"," block4_conv2 (Conv2D)       (None, 32, 32, 512)       2359808   \n","                                                                 \n"," block4_conv3 (Conv2D)       (None, 32, 32, 512)       2359808   \n","                                                                 \n"," block4_pool (MaxPooling2D)  (None, 16, 16, 512)       0         \n","                                                                 \n"," block5_conv1 (Conv2D)       (None, 16, 16, 512)       2359808   \n","                                                                 \n"," block5_conv2 (Conv2D)       (None, 16, 16, 512)       2359808   \n","                                                                 \n"," block5_conv3 (Conv2D)       (None, 16, 16, 512)       2359808   \n","                                                                 \n"," block5_pool (MaxPooling2D)  (None, 8, 8, 512)         0         \n","                                                                 \n","=================================================================\n","Total params: 14714688 (56.13 MB)\n","Trainable params: 14714688 (56.13 MB)\n","Non-trainable params: 0 (0.00 Byte)\n","_________________________________________________________________\n"]}]},{"cell_type":"markdown","source":["## 11.9 VGG16のSequ
…
https://localhost:8080/"},"id":"KZIIl_CQd7iA","executionInfo":{"status":"ok","timestamp":1725277369435,"user_tz":-540,"elapsed":488,"user":{"displayName":"Takashi Suou","userId":"04024765498720654612"}},"outputId":"638256ad-8210-4588-a525-e7e32aea9c52"},"execution_count":26,"outputs":[{"output_type":"stream","name":"stdout","text":["Model: \"sequential\"\n","_________________________________________________________________\n"," Layer (type)                Output Shape              Param #   \n","=================================================================\n"," block1_conv1 (Conv2D)       (None, 256, 256, 64)      1792      \n","                                                                 \n"," block1_conv2 (Conv2D)       (None, 256, 256, 64)      36928     \n","                                                                 \n"," block1_pool (MaxPooling2D)  (None, 128, 128, 64)      0         \n","                                                                 \n"," block2_conv1 (Conv2D)       (None, 128, 128, 128)     73856     \n","                                                                 \n"," block2_conv2 (Conv2D)       (None, 128, 128, 128)     147584    \n","                                                                 \n"," block2_pool (MaxPooling2D)  (None, 64, 64, 128)       0         \n","                                                                 \n"," block3_conv1 (Conv2D)       (None, 64, 64, 256)       295168    \n","                                                                 \n"," block3_conv2 (Conv2D)       (None, 64, 64, 256)       590080    \n","                                                                 \n"," block3_conv3 (Conv2D)       (None, 64, 64, 256)       590080    \n","                                                                 \n"," block3_pool (MaxPooling2D)  (None, 32, 32, 256)       0         \n","                                                                 \n"," block4_conv1 (Conv2D)       (None, 32, 32, 512)       1180160   \n","                                                                 \n"," block4_conv2 (Conv2D)       (None, 32, 32, 512)       2359808   \n","                                                                 \n"," block4_conv3 (Conv2D)       (None, 32, 32, 512)       2359808   \n","                                                                 \n"," block4_pool (MaxPooling2D)  (None, 16, 16, 512)       0         \n","                                                                 \n"," block5_conv1 (Conv2D)       (None, 16, 16, 512)       2359808   \n","                                                                 \n"," block5_conv2 (Conv2D)       (None, 16, 16, 512)       2359808   \n","                                                                 \n"," block5_conv3 (Conv2D)       (None, 16, 16, 512)       2359808   \n","                                                                 \n"," block5_pool (MaxPooling2D)  (None, 8, 8, 512)         0         \n","                                                                 \n"," flatten (Flatten)           (None, 32768)             0         \n","                                                                 \n"," dense (Dense)               (None, 256)               8388864   \n","                                                                 \n"," dense_1 (Dense)             (None, 2)                 514       \n","                                                                 \n","=================================================================\n","Total params: 23104066 (88.14 MB)\n","Trainable params: 8389378 (32.00 MB)\n","Non-trainable params: 14714688 (56.13 MB)\n","_________________________________________________________________\n"]}]},{"cell_type":"markdown","source":["## 11.13 誤差関数・最
…
